MuJoCo/adv_agent-zoo/ucb/you/model.npy (npy, 237648 bytes, 1 tensors)

array f4 [59380]
00000000: ddc7 9b3d 0ee2 d4bd 6ad9 cdbc cf3e 1fbd
00000010: 95ae a83d aa11 31be b37d 90bc cec8 fc3d
00000020: 221c f6bc 0e61 05be 5530 833c bfa6 e6bd
00000030: ad47 2b3c d590 863d 6655 6e3d 441d b73d
00000040: d79a 383d 0e79 b53d 7f5c 50bb 45a3 0ebd
00000050: e985 1dbd 4453 94bc 92d7 f93d 6110 d8bd
00000060: 26c6 34bd 25e4 733d 308b 88bd bf2f 0e3d
00000070: d2a4 76bd 5c34 0dbe 7741 8b3c 66c4 21bd
00000080: 3c1b 983d 75f4 173d df20 2c3d f305 3d3c
00000090: a1d5 71bc 8c42 d63d 33dc b33d 3e4a bfbd
000000a0: ff59 d0bd a551 b5bd 8ba0 de3c 6ab6 5fbd
000000b0: ba0e 0f3c 5638 7dbd 5c0d 113d d54c 053d
000000c0: 38b3 aaba 42db bdbc 93f9 f4bd cca9 203e
000000d0: 5f54 663d f54a 28bd 2293 3ebe f642 383c
000000e0: 7961 ee3d 4ef3 47bd ecff afbd 00c3 653d
000000f0: 0558 2b3e e9c7 47be e139 7a3d fdc6 cfbc
00000100: 3e76 02bd f990 50bd b7a2 313d 48d1 a53d
00000110: 67e8 f9bd 51bd 063e f499 e03c 551e 313d
00000120: d257 db3d 10b4 173e 8d4b 71bd 09fe d8bd
00000130: 2296 0abe 07ba de3c fc09 27bd 4063 633c
00000140: 47df 1a3e f9a4 33bc a7ab cd3c ca55 c53c
00000150: 4891 3bbe a285 6cbd 1792 b8bd db16 443d
00000160: b746 033d e020 9bbd 3d87 be3c 10d9 003e
00000170: 7173 c63d 2fa8 4bbe e431 1a3e 1adf ad3d
00000180: 76cc abbd 67e1 f23d c5fe f5bc beb1 26be
00000190: 7494 e93d c8c1 cc3c 67fa 49bd 88c1 02be
000001a0: 34cd 4cbc 0420 5e3d fcd9 efbd 324a 6a3d
000001b0: 1a71 093d c813 813d 0356 e1bd aff8 d6bc
000001c0: c150 c13c d50a 52bd fab7 aebd d265 133e
000001d0: 8f5b 963d 1a51 283d 8850 0d3c 43f3 fabd
000001e0: 2d4d b2bd 2913 ae3d 91ee d53c 15a7 963d
000001f0: e53d 4f3d 825e 09bc 4a74 28bd 386f f63d
00000200: f87a d03c 3611 18bc dd00 253e 1899 42bd
00000210: 2abc 06be 17c9 05be 0960 c33b 2726 40bd
00000220: baf2 783d adad 763d 7567 443e be43 783b
00000230: cd21 30bd 23ff ec3b 9e21 673d 1865 45bb
00000240: 1775 ce3c 1f18 b7bd 415f a8bc 43c9 ccbb
00000250: a3e8 953d d81f 9b3d 57db 833d 2895 523d
00000260: 8388 2ebc 8302 09bd 5947 983c 591b 95bc
00000270: 43dd fabc 368d c4bd 74aa 04be b6a7 70bd
00000280: 50f4 bcbd e3c8 203c 2251 2abe 37b5 dabc
00000290: ca96 0a3d 8f64 28bd 4ee9 e93c 2e69 4b3d
000002a0: e4d7 13bd e91e 4dbb 4628 aa3d 2eba 1bbe
000002b0: f91a 64bd 8de9 7ebd b056 f6bc d1c9 c53d
000002c0: b328 503c afa7 fdbc acf4 c43d 71f7 a439
000002d0: 5247 f43c b3bb 973d 5028 a03d d151 febb
000002e0: b19a a73c 5e93 853d a4a3 253e a61c f73d
000002f0: 1bc2 9abc 5f3a 02bd 4c6b 153d 2ad7 d43c
00000300: e2ec ae3d e465 fdbd 7fc2 d5bd da2a b4bc
00000310: 4c95 fdbd 57a8 0bbc f6ef d8bd ede5 b13d
00000320: b1de 593d 1676 1dbe e382 4a3d a0a5 9e3c
00000330: 6140 cebd d5ac 99bd 2022 9f3d 39f6 c5bd
00000340: b19e 683d 9142 3dbd 35be e53b e2bb eebc
00000350: d714 473d 63a5 a93d 1178 5dbc 4ea4 bdbb
00000360: bffa a4bb 6f19 803c 4cbc c43d a206 173e
00000370: f9f3 1c3d 9792 673d 86f3 103e 7332 10bd
00000380: 51e4 c03d 5571 0fbe 856c 153e c476 803d
00000390: 9192 053c 541d a4bd 51c9 f2bc 3b9f 22bd
000003a0: 2719 053b e97c 12bc 26fc 8b3d 03d1 fe3c
000003b0: 08c0 46bd 990b cf3c ea26 48bc acb4 27bd
000003c0: 9146 2bbd acdd 98bc abce bd3d a0df 03bd
000003d0: bd1f ddbc 1ce2 a63c ae55 be3d 19d3 8d3a
000003e0: fc38 e1bd d1c3 23bd 4e55 303e a699 53b9
000003f0: 3f31 11be 8957 14be 7a56 bc3d 2675 753d
0.0760648 -0.10394679 -0.025128085 -0.03887826 0.08236424 -0.17291895 -0.017638063 0.12342988
-0.030042712 -0.13025305 0.016014257 -0.11262273 0.010454101 0.06570593 0.05818691 0.08941129
0.04506954 0.0886098 -0.0031793413 -0.034823675 -0.038457785 -0.01810611 0.1219932 -0.10549999
-0.04413428 0.059543747 -0.06667173 0.034713503 -0.06021578 -0.13789505 0.01699899 -0.03949394
0.074270695 0.037098367 0.042023536 0.011537063 -0.014760406 0.104619116 0.08782234 -0.093403324
-0.101734154 -0.08853463 0.027176162 -0.054617323 0.008731538 -0.061821304 0.03541313 0.032543976
-0.0013023382 -0.02317584 -0.11961665 0.15689772 0.056232806 -0.04108711 -0.18610814 0.0112464335
0.11639685 -0.048816018 -0.08593735 0.05609417 0.16732796 -0.19509853 0.061090354 -0.02536344
-0.031851046 -0.050919507 0.043368068 0.08096558 -0.1220253 0.13158156 0.02741716 0.043241818
0.1071011 0.14814782 -0.05890994 -0.10595328 -0.13533834 0.027188314 -0.040781006 0.0138786435
0.15124236 -0.0109646255 0.025106264 0.024088759 -0.18317139 -0.05774463 -0.090122394 0.04787336
0.03204986 -0.0757463 0.023257846 0.12582803 0.096899875 -0.19888376 0.15058094 0.08489819
-0.08388607 0.11859398 -0.03002871 -0.16278741 0.11405268 0.024994746 -0.049311068 -0.12769139
-0.012500096 0.05422975 -0.11711499 0.057199664 0.033555128 0.06302601 -0.110027336 -0.026241628
0.023598077 -0.05127986 -0.085311845 0.1439431 0.07341682 0.04109297 0.008625157 -0.1225343
-0.08706126 0.08499748 0.026114734 0.07356087 0.050596137 -0.008384349 -0.041126527 0.12032932
0.025449261 -0.009281447 0.1611361 -0.047509283 -0.13157716 -0.13064991 0.005962376 -0.046911385
0.060778357 0.060224224 0.1918009 0.0037882174 -0.043000985 0.007232563 0.056428544 -0.003012007
0.025202317 -0.089401476 -0.020553233 -0.006249578 0.073197626 0.07574433 0.0643832 0.051411778
-0.010652664 -0.03344966 0.018588709 -0.018201517 -0.030623084 -0.09597246 -0.12955648 -0.05875369
-0.092262864 0.00981352 -0.16632512 -0.026697738 0.03383521 -0.041111525 0.028553631 0.049660854
-0.03609456 -0.0031298941 0.08308463 -0.1520774 -0.055689786 -0.06223445 -0.030070633 0.09657634
0.012705016 -0.030963747 0.0961698 0.00031464876 0.029819164 0.07408848 0.07820189 -0.007761218
0.020459505 0.06522249 0.16175705 0.12066011 -0.018891385 -0.03179395 0.03647928 0.025981504
0.085412756 -0.1237295 -0.10437488 -0.02199309 -0.12381992 -0.008524022 -0.10592644 0.08686433
0.05319089 -0.15377077 0.04944123 0.019366086 -0.10070873 -0.07503668 0.07770181 -0.09666104
0.056791965 -0.04620606 0.0070112 -0.029142324 0.04860386 0.08283498 -0.013517396 -0.005787409
-0.005034774 0.015637128 0.09606227 0.14748624 0.038318608 0.056536283 0.14155397 -0.035204362
0.09418548 -0.14008076 0.14592178 0.06272653 0.00815262 -0.080134064 -0.02963701 -0.039702635
0.0020309181 -0.008940914 0.06835203 0.031105524 -0.04852298 0.025274085 -0.012216309 -0.040943787
-0.041815344 -0.018660389 0.092679344 -0.032195687 -0.026992673 0.02037149 0.09293686 0.0010820358
-0.10997197 -0.039981667 0.17220041 -0.00020179767 -0.14178942 -0.14486517 0.091961816 0.059926175
