MuJoCo/adv-agent/ucb/ants/model.npy (npy, 108516 bytes, 1 tensors)

array f4 [27097]
0.09194899 -0.037824444 0.17022789 -0.05393048 -0.20466596 -0.29020035 -0.04151288 0.05853214
0.2410137 -0.30821064 0.061660632 -0.14854835 -0.054218657 0.17410083 0.062236417 -0.063638374
-0.14128289 0.31128633 -0.07711328 -0.07026981 -0.0135544725 0.09292006 -0.0063683665 -0.08016604
0.022634031 -0.00628454 -0.054771874 -0.11478297 -0.04953211 -0.0150565775 -0.15354204 0.17078255
-0.21909344 0.02188929 0.13551117 0.07813826 -0.13317725 -0.018111765 0.029843574 -0.05655641
-0.20611043 -0.19265707 0.044979867 0.24458055 -0.057426944 0.06304984 -0.040604282 0.011464789
0.043643855 0.29245695 -0.014685708 0.16993406 0.09077924 0.31367517 0.058913212 0.13117881
-0.11625259 0.09421702 0.2142127 0.040414922 0.085582525 0.023844022 0.1367279 -0.06395079
0.04921499 -0.021620903 -0.32864553 0.16113128 -0.041040238 0.006164268 0.03133972 0.11001899
-0.02570722 -0.01611232 0.14918253 -0.07802253 -0.10144292 -0.061466776 0.17820823 -0.17753433
0.10679692 0.09179713 -0.09587897 0.3161761 0.05375322 0.24379617 -0.34022346 -0.068985276
0.06617317 -0.14436772 0.105510995 -0.21238633 0.021420693 0.019190751 0.03348329 -0.0010265682
-0.09010521 -0.17367981 -0.21327008 0.1525454 0.14695309 0.3147552 0.0304249 0.06451907
0.19572845 -0.27980107 0.14478733 0.14084467 -0.087803945 0.11350446 -0.05718427 -0.44800374
-0.10330705 0.0014280134 -0.15362129 0.2757289 -0.19743536 0.3614917 0.16087699 0.059052136
-0.5023367 0.4043347 -0.09852001 -0.1842359 0.034411754 0.23003256 0.08444899 -0.2418241
-0.17101137 -0.15733296 0.01707919 -0.15210803 0.087223925 0.19711752 -0.02953401 0.05768678
-0.07687156 -0.019698152 0.119911715 -0.25442415 0.07296307 0.2443938 -0.32174003 -0.18872179
0.051265262 0.12628643 -0.111143366 -0.04976 0.24147989 -0.044541255 0.1397251 -0.029039936
0.09690899 0.086875014 -0.270709 0.1410297 0.03870255 0.049526595 -0.003442459 -0.1697893
0.046659455 -0.2696548 0.07545779 -0.04791132 -0.041515943 -0.12482945 0.08857737 0.010746844
0.03481554 -0.11525111 -0.07358048 0.040685687 -0.07989783 -0.0067180223 0.014944029 0.05897122
0.097148605 -0.2736806 0.0043580653 0.11530845 -0.068738624 0.10392548 0.017038869 -0.28285903
0.03753578 -0.16091947 -0.25423995 -0.09752872 0.047783673 -0.18001981 -0.03082729 -0.12343829
-0.08858022 -0.09943409 -0.09922103 0.25687596 -0.17027918 0.09782963 0.058053147 -0.06831108
0.20639774 -0.13542362 0.18640728 -0.17036448 0.17037687 -0.045565743 0.041817963 -0.12384766
0.03480422 -0.04409788 -0.12938374 -0.048708834 0.16652244 -0.00078780967 -0.21358994 -0.01885407
-0.023261337 0.0024860974 -0.14692259 -0.067713656 0.0012201928 0.16680461 0.12171958 0.2126167
-0.11357944 0.09894539 0.116232745 -0.0889836 -0.0022566682 -0.04513216 -0.055766612 0.05253308
0.0763705 -0.074879035 0.15608388 -0.03444597 0.13548398 0.095480815 -0.13775568 0.11277339
0.055147525 0.18121882 -0.256761 0.013243634 -0.28321743 -0.10491642 0.20334683 0.0090781115
0.05950341 0.1927034 -0.054888234 -0.25008547 0.006000633 -0.14125559 0.21077822 -0.012702854
00000000: c14f bc3d ceed 1abd 3850 2e3e 35e6 5cbd
00000010: f493 51be 2495 94be 6909 2abd 66bf 6f3d
00000020: 4ccc 763e c9cd 9dbe dc8f 7c3d 0f1d 18be
00000030: 6214 5ebd 7d47 323e 9deb 7e3d d654 82bd
00000040: 76ac 10be ec60 9f3e 91ed 9dbd 9ee9 8fbd
00000050: 9413 5ebc df4c be3d bbad d0bb 182e a4bd
00000060: 016b b93c 8bee cdbb 7958 60bd 5513 ebbd
00000070: 2fe2 4abd ddaf 76bc 203a 1dbe 9fe1 2e3e
00000080: 085a 60be 2b51 b33c 71c3 0a3e f406 a03d
00000090: 9e5f 08be 205f 94bc 837a f43c b2a7 67bd
000000a0: 9d0e 53be e547 45be cf3c 383d 5373 7a3e
000000b0: 8438 6bbd 4620 813d ad50 26bd cfd6 3b3c
000000c0: e6c3 323d ebbc 953e 539c 70bc 3203 2e3e
000000d0: 77ea b93d 089a a03e fb4e 713d bd53 063e
000000e0: d715 eebd daf4 c03d 935a 5b3e 1e8a 253d
000000f0: e445 af3d 8a54 c33c 6602 0c3e a2f8 82bd
00000100: a895 493d 521e b1bc 3a44 a8be 99ff 243e
00000110: cf19 28bd a1fd c93b 145e 003d a351 e13d
00000120: f397 d2bc fcfd 83bc 4ec3 183e 47ca 9fbd
00000130: 4ec1 cfbd 96c4 7bbd 387c 363e 8fcb 35be
00000140: 58b8 da3d 2200 bc3d 325c c4bd d5e1 a13e
00000150: 562c 5c3d b4a5 793e c531 aebe 2748 8dbd
00000160: cd85 873d 22d5 13be 2616 d83d cd7b 59be
00000170: 737a af3c ec35 9d3c c625 093d ea8d 86ba
00000180: 1589 b8bd 1fd9 31be 7963 5abe dd34 1c3e
00000190: df7a 163e 9827 a13e a43d f93c 9322 843d
000001a0: 0a6d 483e 1642 8fbe 2143 143e 9639 103e
000001b0: 8ed2 b3bd 0775 e83d 0e3a 6abd bf60 e5be
000001c0: a692 d3bd 2e2c bb3a e64e 1dbe 572c 8d3e
000001d0: 7f2c 4abe 7115 b93e f0bc 243e a7e0 713d
000001e0: 2399 00bf f504 cf3e dcc4 c9bd 56a8 3cbe
000001f0: 57f3 0c3d a88d 6b3e 98f3 ac3d bda0 77be
00000200: 9b1d 2fbe e41b 21be a8e9 8b3c 35c2 1bbe
00000210: 75a2 b23d 2dd9 493e 4ff1 f1bc f948 6c3d
00000220: d66e 9dbd 055e a1bc 4694 f53d e243 82be
00000230: a96d 953d 5e42 7a3e 1cbb a4be 4940 41be
00000240: 86fb 513d 3b51 013e 229f e3bd 24d1 4bbd
00000250: 8146 773e e470 36bd 1914 0f3e 29e5 edbc
00000260: 3878 c63d 87eb b13d 5f9a 8abe 176a 103e
00000270: 9186 1e3d 66dc 4a3d e19a 61bb 3fdd 2dbe
00000280: fc1d 3f3d 3210 8abe 9d89 9a3d a93e 44bd
00000290: 9f0c 2abd 95a6 ffbd 0d68 b53d 8813 303c
000002a0: bd9a 0e3d c608 ecbd 5db1 96bd 09a6 263d
000002b0: 79a1 a3bd db22 dcbb cdd7 743c ce8b 713d
000002c0: d9f5 c63d dd1f 8cbe 1ace 8e3b d626 ec3d
000002d0: d6c6 8cbd e2d6 d43d 1995 8b3c e6d2 90be
000002e0: 1ebf 193d 13c8 24be bd2b 82be 23bd c7bd
000002f0: d0b8 433d 1d57 38be 8389 fcbc 37cd fcbd
00000300: 8c69 b5bd 1aa4 cbbd 6534 cbbd 3f85 833e
00000310: aa5d 2ebe e75a c83d 23c9 6d3d aee6 8bbd
00000320: ee59 533e 7dac 0abe 8de1 3e3e 0774 2ebe
00000330: 4677 2e3e 25a3 3abd 5049 2b3d d8a3 fdbd
00000340: df8e 0e3d fb9f 34bd 2c7d 04be ea82 47bd
00000350: dc84 2a3e 0385 4eba 52b7 5abe da73 9abc
00000360: 8f8e bebc cbed 223b e072 16be 75ad 8abd
00000370: e0ee 9f3a d4ce 2a3e 1d48 f93d 31b8 593e
00000380: 569c e8bd e1a3 ca3d 6f0b ee3d 093d b6bd
00000390: 9ce4 13bb 80dc 38bd 886b 64bd ed2c 573d
000003a0: 2368 9c3d 2e5a 99bd 74d4 1f3e 3817 0dbd
000003b0: 50bc 0a3e 728b c33d d30f 0dbe bcf5 e63d
000003c0: 5fe2 613d 6d91 393e 2e76 83be d4fb 583c
000003d0: e001 91be 6cde d6bd 273a 503e 5cbc 143c
000003e0: d9b9 733d 0a54 453e 7cd2 60bd 340b 80be
000003f0: f5a0 c43b 4ea5 10be 3fd6 573e a21f 50bc
